app/src/main/assets/modelim.lite (tflite, 2200 bytes, 5 tensors)

dense_1/MatMul_bias f4 [12]
0	0xbf3d5d52	-0.7397052
1	0x00000000	0.0
2	0x3ebe212d	0.37134686
3	0x3e4b04a8	0.19825995
4	0xbc559dcb	-0.013038109
5	0x3f338d42	0.7013742
6	0xbeff78a4	-0.4989673
7	0x3eeb53ab	0.4596227
8	0x3f14036e	0.57817733
9	0x3f33795e	0.70107067
10	0xbcbb29b7	-0.02284704
11	0x00000000	0.0

dense_1/kernel/transpose f4 [12, 8]
0	0x3e8f5763	0.27996358
1	0x3dfa3ccc	0.12218627
2	0xbd919d48	-0.07110077
3	0xbc74b6ae	-0.014936132
4	0xbbf3658e	-0.0074278777
5	0x3dfc8de8	0.12331754
6	0x3ef103fb	0.4707335
7	0xbdbb5a29	-0.09148056
8	0x3c9a33ce	0.01882353
9	0xbd0fd63d	-0.035116423
10	0xbba197d0	-0.0049314275
11	0xbc3b19d8	-0.011419736
12	0xbbff3600	-0.0077884197
13	0xbc98eca6	-0.01866753
14	0x3bd78700	0.0065773726
15	0xbd38337d	-0.044970978
16	0xbe47c406	-0.19508371
17	0xbcba63ae	-0.02275261
18	0x3dc7b689	0.09751613
19	0xbcd3f78d	-0.025874877
20	0xbd3ba42b	-0.04581086
21	0xbd4e82a8	-0.050417572
22	0xbe8316f8	-0.2560346
23	0x3d11c69e	0.035589807
24	0xbdae4d0d	-0.0851079
25	0x3d8b6e32	0.068081275
26	0x3de50f03	0.11184504
27	0xbd7e6fd7	-0.062118378
28	0xbd3f9d30	-0.046780765
29	0xbbbf1779	-0.0058316556
30	0xbe84ea7e	-0.25960153
31	0xbd0cd298	-0.034380525
32	0x3bb6514d	0.005563891
33	0xbc10c242	-0.008835377
34	0xbb63d764	-0.0034765834
35	0x3c0f35b9	0.008740836
36	0xbd04576f	-0.032309946
37	0xbce8d80a	-0.028423328
38	0x3d00470a	0.031317748
39	0x3c9f995b	0.019482305
40	0xbecddb35	-0.40206304
41	0xbd05e016	-0.032684408
42	0x3e22dbe6	0.15904197
43	0x3b2c15cf	0.0026258116
44	0x3ca67811	0.020320924
45	0x3c8a9284	0.016915567
46	0xbee1a907	-0.4407427
47	0xbe19e7db	-0.15029852
48	0x3e8915fa	0.2677458
49	0xbd6444d1	-0.05572969
50	0xbd8b4b51	-0.06801475
51	0x3ca70b6f	0.020391194
52	0x3e0e6c02	0.13908389
53	0xbde631c1	-0.112399586
54	0x3e449364	0.1919685
55	0x3d7dcf61	0.06196535
56	0xbe761894	-0.24032813
57	0xbcae42fe	-0.021272179
58	0x3dcd1980	0.10014629
59	0x3a7c48d1	0.00096238876
60	0xbc68bb1e	-0.014204768
61	0xbdb4707f	-0.088105194
62	0xbec8bfb4	-0.39208758
63	0xbdc24268	-0.09485322
64	0xbe9d94bb	-0.30777535
65	0xbd038233	-0.03210659
66	0x3e05b978	0.13059032
67	0xbdaaa613	-0.083324574
68	0x3cddd316	0.027078193
69	0xbc38bb07	-0.01127506
70	0xbe87a54c	-0.264933
71	0xbde2cecb	-0.11074599
72	0xbe9bc540	-0.30423927
73	0xbd0dfbab	-0.034663837
74	0x3de759bf	0.112964146
75	0xbd152cbb	-0.03641961
76	0x3d0bdfdb	0.034149032
77	0xbdc4f9d7	-0.09617966
78	0xbef621f8	-0.4807279
79	0x3dc83178	0.097750604
80	0xbcce087e	-0.025150534
81	0xbbade80a	-0.005307202
82	0xbcd89f3a	-0.026443113
83	0xbd3687ae	-0.044562988
84	0xbc13cbf4	-0.009020794
85	0xbd0f18f6	-0.034935914
86	0x3ba2f1ec	0.004972687
87	0x3b415997	0.0029502863
88	0xbd129bad	-0.035792995
89	0xbc8305a0	-0.015993893
90	0xbd31936a	-0.043353476
91	0x3cb47332	0.022027586
92	0xbc3c5f28	-0.011497296
93	0x3c5b79dc	0.013395753
94	0x3b006fa0	0.0019597784
95	0xbc0a54cc	-0.008443069

dense_2/MatMul_bias f4 [8]
0	0x3f4f2f9b	0.80932015
1	0x3f1d0aba	0.6134449
2	0x3c991908	0.018688694
3	0x3f336dc7	0.7008938
4	0x3f222ba8	0.63347864
5	0xbcd9f7de	-0.02660745
6	0xbf143462	-0.5789243
7	0x3f18e44e	0.59723365

dense_2/kernel/transpose f4 [8, 12]
0	0x3d7b2986	0.061318897
1	0xbd19f04d	-0.037582684
2	0xbe32c4dd	-0.1745791
3	0xbd2d6d20	-0.042340398
4	0xbd2e3d53	-0.042538952
5	0xbd960721	-0.073255785
6	0xbe93d3db	-0.2887257
7	0x3d7ee5fa	0.06223104
8	0xbde9c97d	-0.11415384
9	0x3dd1ca03	0.10243609
10	0xbd3c1917	-0.045922365
11	0x3b84b100	0.0040494204
12	0xbd91f684	-0.07127097
13	0x3d276471	0.040867273
14	0x3d916e2c	0.07101092
15	0x3d279d1e	0.040921323
16	0x3cf7f3d3	0.030267632
17	0x3e33c3e4	0.17555195
18	0xbd7cb6ae	-0.061697654
19	0x3cdabd41	0.026701571
20	0x3d858711	0.065199025
21	0x3daad403	0.08341219
22	0xbcb1688b	-0.021656295
23	0x3d4bc893	0.04975183
24	0xbd2086df	-0.039191123
25	0x3c49d8c0	0.012319744
26	0x3c7fc81a	0.015611673
27	0xbd73253a	-0.059361674
28	0xbc92311a	-0.01784568
29	0x3d9e4a64	0.07729033
30	0xbd59cf31	-0.05317611
31	0xbd3c8a58	-0.046030372
32	0xbc1e66d9	-0.0096680755
33	0x3d198111	0.037476603
34	0xbd11be6d	-0.035581995
35	0x3be30f68	0.006929327
36	0xbd46ff2b	-0.04858319
37	0x3d0e59b9	0.034753535
38	0x3dbd783d	0.09251449
39	0x3d80924d	0.06277905
40	0x3d26250f	0.040562686
41	0x3d7d739f	0.061877843
42	0xbe5fc95d	-0.21854158
43	0x3b800619	0.003906977
44	0x3d4542fe	0.04815959
45	0x3da6f6ab	0.08152517
46	0xbd08f6c3	-0.033438455
47	0x3ca08efa	0.019599427
48	0xbda97b45	-0.08275465
49	0xbc7b720c	-0.015347015
50	0x3cdbc022	0.026825015
51	0x3d870e11	0.0659448
52	0x3c9d2014	0.019180335
53	0x3e313f2d	0.17309256
54	0xbcec8961	-0.028874101
55	0x3d7af5fa	0.061269738
56	0x3e0b00a1	0.13574459
57	0x3d24c886	0.040230297
58	0x3b6ff7c7	0.0036616193
59	0xbd2c5ee3	-0.04208268
60	0xbc9bb2d6	-0.019006174
61	0xbd470eea	-0.048598208
62	0x3acf28a2	0.0015804956
63	0x3ac19e76	0.0014771956
64	0xba81f527	-0.000991498
65	0xbbf4825a	-0.007461828
66	0xbcc55d04	-0.024092205
67	0xbd8b1111	-0.067903645
68	0xbd541cbc	-0.051785216
69	0xbbb37bc9	-0.005477403
70	0xbd38e663	-0.04514159
71	0xbcbd4180	-0.023102522
72	0x3e853fde	0.2602529
73	0xbd1b10da	-0.037857868
74	0x3cab37d0	0.020900637
75	0x3dd42b2f	0.10359799
76	0xbd38078a	-0.044929065
77	0xbe9b52bb	-0.30336556
78	0x3dbc47ae	0.09193359
79	0xbcbf3d67	-0.023344709
80	0xbe278161	-0.16357948
81	0xbdb725c3	-0.08942749
82	0xbd1d5c73	-0.038418245
83	0xbcea896d	-0.028629983
84	0xbd779226	-0.060442112
85	0x3d376d49	0.044781957
86	0x3de39fce	0.11114465
87	0x3d987487	0.07444101
88	0xbcb75928	-0.02238138
89	0x3d426cd2	0.04746706
90	0xbe42f25e	-0.19037768
91	0x3dc430b2	0.095796004
92	0x3b884bbd	0.0041594193
93	0x3d99cc97	0.075097255
94	0xbc04ad5e	-0.008097975
95	0x3cf59972	0.029980395

dense_3/kernel/transpose f4 [1, 8]
0	0xbebf558b	-0.37369952
1	0xbe1674c3	-0.14692979
2	0x3ce9e014	0.028549232
3	0xbe3da96f	-0.18521665
4	0xbe062944	-0.13101679
5	0x3cbdc8c4	0.023167022
6	0x3ec5a6bf	0.3860378
7	0xbe36b13c	-0.17841047
